…
related parameters ####\n","args.in_dim = 3072\n","args.hid_dim = 100\n","args.out_dim = 10\n","args.n_layer = 5\n","\n","#### Hyperparameters ####\n","args.act = 'relu'\n","args.lr = 0.001\n","args.mm = 0.9\n","args.epoch = 3\n","\n","layer_list = [3,4,5]\n","hid_dim_list = [50,100,150]\n","\n","for layer in layer_list:\n","    for dim in hid_dim_list:\n","        args.n_layer = layer\n","        args.hid_dim = dim\n","        result = experiment(args)\n","        print(result)\n"],"execution_count":86,"outputs":[{"output_type":"stream","text":["<class 'argparse.Namespace'>\n","MLP(\n","  (fc): Linear(in_features=3072, out_features=50, bias=True)\n","  (linears): ModuleList(\n","    (0): Linear(in_features=50, out_features=50, bias=True)\n","    (1): Linear(in_features=50, out_features=50, bias=True)\n","  )\n","  (fc2): Linear(in_features=50, out_features=10, bias=True)\n","  (act): ReLU()\n",")\n","[1,  2000] loss: 2.094\n","[1,  4000] loss: 1.809\n","[1,  6000] loss: 1.735\n","[1,  8000] loss: 1.680\n","[1, 10000] loss: 1.645\n","Epoch 0, Train Loss: 17926.970511972904, Val Loss: 1.6315578446149825, Val Acc: 42.0\n","[2,  2000] loss: 1.578\n","[2,  4000] loss: 1.578\n","[2,  6000] loss: 1.552\n","[2,  8000] loss: 1.544\n","[2, 10000] loss: 1.540\n","Epoch 1, Train Loss: 15584.14588984847, Val Loss: 1.5388641041517257, Val Acc: 45.71\n","[3,  2000] loss: 1.480\n","[3,  4000] loss: 1.482\n","[3,  6000] loss: 1.477\n","[3,  8000] loss: 1.459\n","[3, 10000] loss: 1.477\n","Epoch 2, Train Loss: 14751.207640051842, Val Loss: 1.486829084467888, Val Acc: 47.67\n","(14751.207640051842, 1.486829084467888, 47.67, 47.5)\n","MLP(\n","  (fc): Linear(in_features=3072, out_features=100, bias=True)\n","  (linears): ModuleList(\n","    (0): Linear(in_features=100, out_features=100, bias=True)\n","    (1): Linear(in_features=100, out_features=100, bias=True)\n","  )\n","  (fc2): Linear(in_features=100, out_features=10, bias=True)\n","  (act): ReLU()\n",")\n","[1,  2000] loss: 2.042\n","[1,  4000] loss: 1.765\n","[1,  6000] loss: 1.698\n","[1,  8000] loss: 1.669\n","[1, 10000] loss: 1.620\n","Epoch 0, Train Loss: 17587.7213819623, Val Loss: 1.652027779197693, Val Acc: 41.51\n","[2,  2000] loss: 1.538\n","[2,  4000] loss: 1.541\n","[2,  6000] loss: 1.523\n","[2,  8000] loss: 1.515\n","[2, 10000] loss: 1.481\n","Epoch 1, Train Loss: 15194.814190298319, Val Loss: 1.5099204974889755, Val Acc: 46.98\n","[3,  2000] loss: 1.425\n","[3,  4000] loss: 1.416\n","[3,  6000] loss: 1.414\n","[3,  8000] loss: 1.423\n","[3, 10000] loss: 1.412\n","Epoch 2, Train Loss: 14178.966199845076, Val Loss: 1.4286609100461005, Val Acc: 49.26\n","(14178.966199845076, 1.4286609100461005, 49.26, 49.83)\n","MLP(\n","  (fc): Linear(in_features=3072, out_features=150, bias=True)\n","  (linears): ModuleList(\n","    (0): Linear(in_features=150, out_features=150, bias=True)\n","    (1): Linear(in_features=150, out_features=150, bias=True)\n","  )\n","  (fc2): Linear(in_features=150, out_features=10, bias=True)\n","  (act): ReLU()\n",")\n","[1,  2000] loss: 2.046\n","[1,  4000] loss: 1.791\n","[1,  6000] loss: 1.699\n","[1,  8000] loss: 1.646\n","[1, 10000] loss: 1.598\n","Epoch 0, Train Loss: 17560.573272526264, Val Loss: 1.602755224943161, Val Acc: 43.26\n","[2,  2000] loss: 1.536\n","[2,  4000] loss: 1.518\n","[2,  6000] loss: 1.500\n","[2,  8000] loss: 1.483\n","[2, 10000] loss: 1.481\n","Epoch 1, Train Loss: 15036.301719635725, Val Loss: 1.487709795665741, Val Acc: 47.0\n","[3,  2000] loss: 1.407\n","[3,  4000] loss: 1.394\n","[3,  6000] loss: 1.381\n","[3,  8000] loss: 1.395\n","[3, 10000] loss: 1.399\n","Epoch 2, Train Loss: 13950.834841609001, Val Loss: 1.418514944911003, Val Acc: 49.49\n","(13950.834841609001, 1.418514944911003, 49.49, 49.37)\n","MLP(\n","  (fc): Linear(in_features=3072, out_features=50, bias=True)\n","  (linears): ModuleList(\n","    (0): Linear(in_features=50, out_features=50, bias=True)\n","    (1): Linear(in_features=50, out_features=50, bias=True)\n","    (2): Linear(in_features=50, out_features=50, bias=True)\n","  )\n","  (fc2): Linear(in_features=50, out_features=10, bias=True)\n","  (act): ReLU()\n",")\n","[1,  2000] loss: 2.216\n","[1,  4000] loss: 1.928\n","[1,  6000] loss: 1.787\n","[1,  8000] loss: 1.732\n","[1, 10000] loss: 1.663\n","Epoch 0, Train Loss: 18654.820709735155, Val Loss: 1.6470802279949188, Val Acc: 41.3\n","[2,  2000] loss: 1.628\n","[2,  4000] loss: 1.601\n","[2,  6000] loss: 1.579\n","[2,  8000] loss: 1.570\n","[2, 10000] loss: 1.562\n","Epoch 1, Train Loss: 15880.22344431281, Val Loss: 1.5634045214533805, Val Acc: 45.74\n","[3,  2000] loss: 1.496\n","[3,  4000] loss: 1.504\n","[3,  6000] loss: 1.483\n","[3,  8000] loss: 1.491\n","[3, 10000] loss: 1.479\n","Epoch 2, Train Loss: 14907.873538345098, Val Loss: 1.5211337886333465, Val Acc: 46.59\n","(14907.873538345098, 1.5211337886333465, 46.59, 46.5)\n","MLP(\n","  (fc): Linear(in_features=3072, out_features=100, bias=True)\n","  (linears): ModuleList(\n","    (0): Linear(in_features=100, out_features=100, bias=True)\n","    (1): Linear(in_features=100, out_features=100, bias=True)\n","    (2): Linear(in_features=100, out_features=100, bias=True)\n","  )\n","  (fc2): Linear(in_features=100, out_features=10, bias=True)\n","  (act): ReLU()\n",")\n","[1,  2000] loss: 2.171\n","[1,  4000] loss: 1.895\n","[1,  6000] loss: 1.794\n","[1,  8000] loss: 1.738\n","[1, 10000] loss: 1.670\n","Epoch 0, Train Loss: 18536.2565459311, Val Loss: 1.6366960344791412, Val Acc: 41.54\n","[2,  2000] loss: 1.587\n","[2,  4000] loss: 1.625\n","[2,  6000] loss: 1.558\n","[2,  8000] loss: 1.532\n","[2, 10000] loss: 1.521\n","Epoch 1, Train Loss: 15647.51857072115, Val Loss: 1.5395076320290566, Val Acc: 45.09\n","[3,  2000] loss: 1.447\n","[3,  4000] loss: 1.454\n","[3,  6000] loss: 1.438\n","[3,  8000] loss: 1.460\n","[3, 10000] loss: 1.448\n","Epoch 2, Train Loss: 14493.523132413626, Val Loss: 1.4938632395386695, Val Acc: 47.03\n","(14493.523132413626, 1.4938632395386695, 47.03, 47.86)\n","MLP(\n","  (fc): Linear(in_features=3072, out_features=150, bias=True)\n","  (linears): ModuleList(\n","    (0): Linear(in_features=150, out_features=150, bias=True)\n","    (1): Linear(in_features=150, out_features=150, bias=True)\n","    (2): Linear(in_features=150, out_features=150, bias=True)\n","  )\n","  (fc2): Linear(in_features=150, out_features=10, bias=True)\n","  (act): ReLU()\n",")\n","[1,  2000] loss: 2.163\n","[1,  4000] loss: 1.859\n","[1,  6000] loss: 1.753\n","[1,  8000] loss: 1.674\n","[1, 10000] loss: 1.659\n","Epoch 0, Train Loss: 18216.952519625425, Val Loss: 1.6320449366807939, Val Acc: 41.76\n","[2,  2000] loss: 1.586\n","[2,  4000] loss: 1.546\n","[2,  6000] loss: 1.539\n","[2,  8000] loss: 1.533\n","[2, 10000] loss: 1.496\n","Epoch 1, Train Loss: 15403.063583403826, Val Loss: 1.5093136803746223, Val Acc: 46.61\n","[3,  2000] loss: 1.435\n","[3,  4000] loss: 1.424\n","[3,  6000] loss: 1.428\n","[3,  8000] loss: 1.408\n","[3, 10000] loss: 1.396\n","Epoch 2, Train Loss: 14180.780824929476, Val Loss: 1.4351381132602692, Val Acc: 48.97\n","(14180.780824929476, 1.4351381132602692, 48.97, 49.43)\n","MLP(\n","  (fc): Linear(in_features=3072, out_features=50, bias=True)\n","  (linears): ModuleList(\n","    (0): Linear(in_features=50, out_features=50, bias=True)\n","    (1): Linear(in_features=50, out_features=50, bias=True)\n","    (2): Linear(in_features=50, out_features=50, bias=True)\n","    (3): Linear(in_features=50, out_features=50, bias=True)\n","  )\n","  (fc2): Linear(in_features=50, out_features=10, bias=True)\n","  (act): ReLU()\n",")\n","[1,  2000] loss: 2.280\n","[1,  4000] loss: 2.071\n","[1,  6000] loss: 1.910\n","[1,  8000] loss: 1.820\n","[1, 10000] loss: 1.770\n","Epoch 0, Train Loss: 19700.726486563683, Val Loss: 1.7227628042459489, Val Acc: 38.19\n","[2,  2000] loss: 1.709\n","[2,  4000] loss: 1.668\n","[2,  6000] loss: 1.663\n","[2,  8000] loss: 1.636\n","[2, 10000] loss: 1.593\n","Epoch 1, Train Loss: 16538.13003861904, Val Loss: 1.6043637758493423, Val Acc: 42.46\n","[3,  2000] loss: 1.568\n","[3,  4000] loss: 1.549\n","[3,  6000] loss: 1.536\n","[3,  8000] loss: 1.525\n","[3, 10000] loss: 1.523\n","Epoch 2, Train Loss: 15401.192255020142, Val Loss: 1.5364645614385606, Val Acc: 44.96\n","(15401.192255020142, 1.5364645614385606, 44.96, 45.52)\n","MLP(\n","  (fc): Linear(in_features=3072, out_features=100, bias=True)\n","  (linears): ModuleList(\n","    (0): Linear(in_features=100, out_features=100, bias=True)\n","    (1): Linear(in_features=100, out_features=100, bias=True)\n","    (2): Linear(in_features=100, out_features=100, bias=True)\n","    (3): Linear(in_features=100, out_features=100, bias=True)\n","  )\n","  (fc2): Linear(in_features=100, out_features=10, bias=True)\n","  (act): ReLU()\n",")\n","[1,  2000] loss: 2.298\n","[1,  4000] loss: 2.079\n","[1,  6000] loss: 1.900\n","[1,  8000] loss: 1.809\n","[1, 10000] loss: 1.722\n","Epoch 0, Train Loss: 19616.06073665619, Val Loss: 1.7462740283250808, Val Acc: 36.55\n","[2,  2000] loss: 1.655\n","[2,  4000] loss: 1.626\n","[2,  6000] loss: 1.605\n","[2,  8000] loss: 1.583\n","[2, 10000] loss: 1.571\n","Epoch 1, Train Loss: 16080.48772868514, Val Loss: 1.566131022644043, Val Acc: 43.58\n","[3,  2000] loss: 1.500\n","[3,  4000] loss: 1.505\n","[3,  6000] loss: 1.478\n","[3,  8000] loss: 1.480\n","[3, 10000] loss: 1.450\n","Epoch 2, Train Loss: 14825.341930449009, Val Loss: 1.4956881961226463, Val Acc: 47.02\n","(14825.341930449009, 1.4956881961226463, 47.02, 47.33)\n","MLP(\n","  (fc): Linear(in_features=3072, out_features=150, bias=True)\n","  (linears): ModuleList(\n","    (0): Linear(in_features=150, out_features=150, bias=True)\n","    (1): Linear(in_features=150, out_features=150, bias=True)\n","    (2): Linear(in_features=150, out_features=150, bias=True)\n","    (3): Linear(in_features=150, out_features=150, bias=True)\n","  )\n","  (fc2): Linear(in_features=150, out_features=10, bias=True)\n","  (act): ReLU()\n",")\n","[1,  2000] loss: 2.295\n","[1,  4000] loss: 2.098\n","[1,  6000] loss: 1.915\n","[1,  8000] loss: 1.781\n","[1, 10000] loss: 1.728\n","Epoch 0, Train Loss: 19635.0122666955, Val Loss: 1.7406802712678908, Val Acc: 37.7\n","[2,  2000] loss: 1.671\n","[2,  4000] loss: 1.613\n","[2,  6000] loss: 1.589\n","[2,  8000] loss: 1.583
…
